data.pth (torch, 10199 bytes, 6 tensors)

l1.weight f4 [8, 143]
-0.0040435884 -0.34918192 0.28279278 0.1165071 -0.11741728 0.8710327 -1.2332577 0.5107233
-0.26172933 -0.56674457 0.36583388 -0.45415896 -0.27884114 -0.4408986 -0.0012654341 0.47235528
0.30682245 -0.33046493 0.40899223 -0.56716233 0.7103482 0.33995855 0.4925925 0.7166832
0.8158368 -0.56667674 -0.4239306 -0.47424194 -0.49760062 0.43267024 0.44092947 -0.06268983
0.90049577 -0.9452808 0.7574276 0.25148562 0.5640585 -0.11737205 0.28739747 -0.84963924
0.17954934 0.5821816 0.024642877 0.45835543 0.6246241 -0.0089309355 -0.34957227 0.16756932
1.3363681 0.14126681 -0.33070847 0.01658025 -0.027724013 0.39379182 0.16029589 0.6637946
-0.36764374 0.3246951 -0.24438812 -0.15177636 -0.06992312 -0.070146635 -0.56647986 0.39564008
-0.3049482 0.6707429 -0.67414826 -0.2636861 0.67679906 -0.27570504 -0.23535502 -0.26304471
0.7346392 0.55173796 -0.31858942 0.50065756 0.26664826 1.1727161 0.16577116 0.45317838
-0.46633774 0.5579107 0.74085164 1.0685873 -0.0023479157 -0.43280733 0.2033772 0.6918763
0.9267227 0.18109542 0.5064198 -0.19122867 -0.31092548 0.39852792 0.8430555 1.0120969
0.116884105 0.38915107 0.16918789 -0.88304013 0.28448996 -0.3577052 -0.6357019 -0.5802074
-0.051437944 0.30698192 -0.043801017 0.585129 0.7562936 -0.08333817 -0.423697 0.5129371
-0.013852448 -0.40508923 -0.06292646 -0.4739511 -0.32498065 0.49110255 0.7472388 -0.68451774
0.139457 0.74973047 0.4927136 0.6099538 -0.5765611 -0.79815537 -0.5664449 0.1672346
-0.20327069 -0.55010283 -0.36261347 0.29899704 0.31949377 -0.123091795 0.26232117 -0.22729889
0.88708276 -0.054764155 0.30347076 0.5077157 0.34472996 -0.4986063 0.27103084 0.30190971
0.13724592 -0.030520704 -0.1344313 -0.37400055 0.41841638 -0.47375003 -0.0395056 -0.3289525
-0.50199485 -0.39035672 0.17932464 0.15464191 -0.48608807 0.24860676 -0.057007298 0.33414325
-0.5103743 -0.084191196 -0.6992401 0.49887297 0.21808721 0.36046472 -0.23789825 -0.3112847
0.90928674 -0.296144 0.16639678 0.1269981 -0.22689922 0.32091892 0.39040163 -0.15422732
-0.3506846 0.15192915 0.4714591 -0.057115506 -0.26959252 0.04795271 0.81086373 0.4219568
-0.8606725 -0.06419531 0.34519914 -0.27324393 0.7025153 0.6645307 -0.24854484 1.0708501
-0.10799548 -0.35574615 0.31290883 0.08354367 -0.23648465 -0.22453323 0.014399319 -0.26185513
0.014416549 0.22616546 -0.6116133 -0.14354026 -0.26279992 -0.5101115 -0.1836273 -0.2706513
0.5199939 -0.534195 -0.6755702 1.3409349 -0.6695561 -0.66276973 -0.6818251 0.29760012
0.59110934 -0.69901705 0.45573917 0.0037352191 -0.69946045 0.7624472 0.7877483 0.23531884
-0.30427602 -0.21458553 1.0496911 1.2980286 -0.40852016 0.11974988 1.0743271 1.1189938
-0.12481655 -0.5567175 0.11394708 -0.30497727 0.70799285 0.33794695 0.11369374 0.7257744
0.42015848 -0.23371707 0.9478954 0.12763259 -0.09853553 -0.35736498 -0.35630465 0.2558064
0.057598803 0.064891465 -0.8298288 -0.18966565 -0.12351587 0.13450134 0.0020690935 -1.0510883
00000000: 1480 84bb f9c7 b2be 37ca 903e 469b ee3d
00000010: 7978 f0bd 00fc 5e3f 63db 9dbf c3be 023f
00000020: 6301 86be 2c16 11bf 944e bb3e 8687 e8be
00000030: 44c4 8ebe 76bd e1be ecdc a5ba 8dd8 f13e
00000040: d517 9d3e b332 a9be 6e67 d13e 8d31 11bf
00000050: 61d9 353f 0c0f ae3e 1635 fc3e 8d78 373f
00000060: aeda 503f ba11 11bf 6e0d d9be d7cf f2be
00000070: 82c5 febe f486 dd3e 82c1 e13e 8763 80bd
00000080: e486 663f ecfd 71bf c6e6 413f b9c2 803e
00000090: 2366 103f c260 f0bd c325 933e f581 59bf
000000a0: c8db 373e da09 153f dcdf c93c 90ad ea3e
000000b0: 5de7 1f3f 0f53 12bc 23fb b2be 4b97 2b3e
000000c0: 1c0e ab3f 3fa8 103e 9f52 a9be 4ed3 873c
000000d0: 781d e3bc 159f c93e 9b24 243e 71ee 293f
000000e0: cd3b bcbe 703e a63e e140 7abe 436b 1bbe
000000f0: da33 8fbd 0aa9 8fbd d304 11bf 5691 ca3e
00000100: 2c22 9cbe cfb5 2b3f fb94 2cbf dd01 87be
00000110: b442 2d3f 3629 8dbe e800 71be ccad 86be
00000120: 5111 3c3f b33e 0d3f 271e a3be 182b 003f
00000130: 1f86 883e 901b 963f eabf 293e ff06 e83e
00000140: d2c3 eebe 3cd3 0e3f 74a8 3d3f 78c7 883f
00000150: 7ddf 19bb ec98 ddbe 1d42 503e ce1e 313f
00000160: b33d 6d3f 1471 393e baa4 013f 73d1 43be
00000170: a031 9fbe da0b cc3e 7cd2 573f 648c 813f
00000180: ef60 ef3d cf3e c73e 973f 2d3e eb0e 62bf
00000190: aba8 913e 2325 b7be 5cbd 22bf 7988 14bf
000001a0: 98b0 52bd bc2c 9d3e b268 33bd 04cb 153f
000001b0: 759c 413f 34ad aabd d0ee d8be d94f 033f
000001c0: 61f5 62bc db67 cfbe 96df 80bd b8a9 f2be
000001d0: dd63 a6be cb71 fb3e 0b4b 3f3f 8e3c 2fbf
000001e0: d1cd 0e3e 56ee 3f3f f544 fc3e ef25 1c3f
000001f0: 8299 13bf e953 4cbf 8802 11bf 8c3f 2b3e
00000200: 3126 50be 8ad3 0cbf 79a8 b9be 2416 993e
00000210: b094 a33e 8d17 fcbd f64e 863e 0ac1 68be
00000220: db17 633f 6150 60bd 8560 9b3e a8f9 013f
00000230: 7280 b03e 5349 ffbe 8ec4 8a3e e993 9a3e
00000240: 328a 0c3e 8e06 fabc 5ca8 09be 007d bfbe
00000250: ac3a d63e 5d8f f2be a0d0 21bd 766c a8be
00000260: bc82 00bf d6dc c7be e1a0 373e 735a 1e3e
00000270: 89e0 f8be c592 7e3e 7c80 69bd d314 ab3e
00000280: e4a7 02bf 6f6c acbd 6601 33bf 476c ff3e
00000290: 4152 5f3e d58e b83e 999b 73be b560 9fbe
000002a0: 04c7 683f 30a0 97be eb63 2a3e ca0b 023e
000002b0: 4558 68be 7c4f a43e b9e2 c73e c4ed 1dbe
000002c0: ef8c b3be 5193 1b3e 1663 f13e f3f1 69bd
000002d0: 0808 8abe 106a 443d c494 4f3f b90a d83e
000002e0: 0855 5cbf d578 83bd f1bd b03e a1e6 8bbe
000002f0: 0bd8 333f af1e 2a3f 8a82 7ebe 9e11 893f
00000300: bc2c ddbd 5c24 b6be 9635 a03e f218 ab3d
00000310: 0829 72be 0aec 65be 1feb 6b3c e011 86be
00000320: 6433 6c3c eb97 673e b092 1cbf 38fc 12be
00000330: b68d 86be ab96 02bf cc08 3cbe cf92 8abe
00000340: 521e 053f 01c1 08bf 2bf2 2cbf c1a3 ab3f
00000350: 0768 2bbf 47ab 29bf 178c 2ebf 0b5f 983e
00000360: f152 173f c8f2 32bf a556 e93e 94ca 743b
00000370: d70f 33bf bd2f 433f dfa9 493f 6cf7 703e
00000380: 11ca 9bbe 4fbc 5bbe 475c 863f cd25 a63f
00000390: 8e29 d1be 6d3f f53d 8d83 893f 303b 8f3f
000003a0: d29f ffbd 0a85 0ebf 165d e93d fb25 9cbe
000003b0: 053f 353f 6207 ad3e 43d8 e83d 5acc 393f
000003c0: 031f d73e 8753 6fbe 46a9 723f 1eb2 023e
000003d0: ffcc c9bd 8bf8 b6be 906d b6be 0ef9 823e
000003e0: b9ec 6b3d d1e5 843d a96f 54bf b637 42be
000003f0: e3f5 fcbd b8ba 093e a199 073b 108a 86bf

l1.bias f4 [8]
0.5666654 0.6992714 0.5224138 0.66421646 1.3652037 0.89978904 1.2265987 1.1065415
00000000: fc10 113f 7303 333f e9bc 053f 170a 2a3f
00000010: ffbe ae3f 9358 663f 3001 9d3f 27a3 8d3f

l2.weight f4 [8, 8]
-0.6102899 1.2005627 1.9427086 2.4239244 1.1392505 -1.2970679 0.9947703 -1.0625143
2.1207347 2.1034093 0.17712864 0.4594657 -1.1673657 1.8820735 1.0954317 -0.17336711
-1.4904631 -1.1275464 1.5563023 1.9508048 0.9445669 1.3389335 -0.8366651 2.2019086
-0.97522974 -0.7822542 -1.1379032 -0.59700674 0.5233351 0.9394587 2.135257 2.2199392
0.22093436 -0.25729492 -0.228984 0.055367887 -0.093696326 0.047773868 -0.21933539 -0.12348108
-0.67953295 1.3237185 -0.6482164 -1.0484064 1.8631443 0.43856785 1.1825145 -0.52579856
0.9016903 -0.4886622 -1.1003315 0.2368294 1.9656074 1.5414498 -0.87594014 -0.8116269
1.5566633 -2.0037184 0.57043993 0.1823089 1.7076583 -0.97293663 1.8429389 -0.2163983
00000000: f53b 1cbf 0aac 993f adaa f83f 9421 1b40
00000010: f6d2 913f 5206 a6bf 44a9 7e3f 7800 88bf
00000020: 1eba 0740 429e 0640 3661 353e 173f eb3e
00000030: 3d6c 95bf c9e7 f03f 1b37 8c3f 2687 31be
00000040: 7fc7 bebf 7153 90bf ea34 c73f f9b3 f93f
00000050: 23cf 713f 2c62 ab3f af2f 56bf 12ec 0c40
00000060: a8a8 79bf d041 48bf d0a6 91bf 6fd5 18bf
00000070: 4af9 053f 5e80 703f 0da8 0840 7c13 0e40
00000080: 9e3c 623e 29bc 83be c87a 6abe 70c9 623d
00000090: dce3 bfbd 88ae 433d 7599 60be a6e3 fcbd
000000a0: dff5 2dbf 9c6f a93f 83f1 25bf 2e32 86bf
000000b0: 837b ee3f f78b e03e a35c 973f bc9a 06bf
000000c0: 2dd5 663f ef31 fabe aad7 8cbf 6883 723e
000000d0: 0699 fb3f 3a4e c53f 9d3d 60bf c8c6 4fbf
000000e0: be40 c73f ec3c 00c0 5a08 123f 2faf 3a3e
000000f0: 8c94 da3f 6012 79bf 6ce5 eb3f 8497 5dbe

l2.bias f4 [8]
0.5007122 -0.37566185 0.8616349 0.8992756 -0.3513 0.7444184 0.48957226 -0.15600924
00000000: ad2e 003f c056 c0be 1b94 5c3f ed36 663f
00000010: 98dd b3be 3492 3e3f 37a9 fa3e e3c0 1fbe

l3.weight f4 [28, 8]
0.54029036 -0.014949735 -1.8837129 -1.6031725 -0.09507099 -0.30513385 -0.5374811 0.49700722
0.04847004 -0.97580916 0.48787394 -2.2947488 -0.34942016 -2.1403117 0.34856623 0.5935604
-0.14417543 0.23168477 0.24510582 0.31323528 -0.06884128 -1.8323934 -1.7467427 -0.7096197
0.5382586 -1.0185337 -0.19260338 -2.2591798 0.306071 0.20399053 -0.4982491 0.51594144
0.1756201 -0.49762976 -0.24093926 0.12981386 -0.3055585 -2.8957868 -1.6002592 0.86171216
-0.24126327 -1.1975373 0.4929906 -0.10738763 -0.2778928 -1.1415224 0.45258713 -0.51429504
0.74914384 -1.9475245 0.7645011 -2.0301201 0.15006676 -1.9068719 -1.716398 -0.0007507083
-2.3336 0.896639 -1.9964037 -1.7479442 0.2302678 -0.14200045 0.24375495 -0.8535096
-2.1530752 -0.01575339 -1.4297799 0.28168392 0.13173139 0.16588305 0.5434969 0.59262145
-0.25594404 0.6747848 -0.41608924 -1.808627 0.20193169 -2.8858044 0.01351504 -0.0063778195
-0.18815193 0.31452692 -1.29027 0.13764834 -0.11682673 -0.71913505 -0.59585726 0.2920337
-0.16450255 0.2528345 -0.4437463 -1.5382074 -0.11121723 -0.06630821 0.61930823 -1.1823087
-0.13965632 -0.8111256 -0.67751724 0.2377862 -0.33770302 0.6898953 0.65346795 -0.9256845
0.068056285 -1.4476626 0.7489719 0.58706313 -0.10951057 -2.713294 -1.9520584 -0.9946383
0.6527533 -0.049006697 0.16545293 -2.3862977 0.12366909 -2.16375 -1.7516141 -0.049583226
-2.518383 0.1966048 0.8845401 0.41461805 -0.21396568 -2.4904985 -1.8242548 -1.8094149
0.6990643 -2.3603683 -0.05428849 0.20125483 0.0010710359 -0.367005 -1.2000462 0.30008066
-1.2104658 -2.0148373 -0.5364087 1.0922782 0.2021586 0.53407216 -0.42275086 0.5086178
0.964144 0.5132769 -1.7192237 -1.440335 -0.07483789 -1.4708529 -1.2154559 -1.3269045
0.122438736 -0.69786596 -2.4097738 -0.1581081 -0.048664898 0.641005 -0.17289048 0.6378724
-1.2056395 -0.07123613 0.39975604 0.31251195 0.34978756 -2.6282392 0.5760209 -2.2839677
-0.4217828 -0.48234314 -0.7061895 -2.001317 0.32731166 0.06294621 0.8005307 0.5593516
-0.5789391 0.48110688 -2.0816612 0.6989631 -0.22044255 0.35784417 -0.7402165 -1.3191619
-0.80586267 -0.14174485 -0.14236133 -0.3169152 0.15377519 -1.201125 0.42912096 0.30689904
-2.2287095 0.28107736 -0.42372537 0.3281 -0.30526668 -0.12188555 0.5068103 -2.226194
-2.0568252 0.11700063 -0.0041733007 0.78654975 0.21829113 -0.73646396 -0.95900536 -0.10272637
0.77563095 -0.5288063 0.18312734 -0.99459404 -0.27869776 0.17238083 -2.1117363 -1.7910299
-2.3214962 -1.9418154 0.7986299 0.9098696 -0.18714839 0.057734493 0.18712011 -1.7669245
00000000: 7850 0a3f bcef 74bc 811d f1bf c234 cdbf
00000010: 94b4 c2bd 813a 9cbe 5d98 09bf bb77 fe3e
00000020: 8588 463d a1ce 79bf 9dca f93e 2add 12c0
00000030: 33e7 b2be defa 08c0 4677 b23e 93f3 173f
00000040: b9a2 13be c63e 6d3e 05fd 7a3e 6060 a03e
00000050: a8fc 8cbd de8b eabf 4495 dfbf a3a9 35bf
00000060: 51cb 093f 505f 82bf d239 45be 6796 10c0
00000070: 57b5 9c3e e5e2 503e 821a ffbe bd14 043f
00000080: c1d5 333e 54c9 febe c8b8 76be eded 043e
00000090: 2a72 9cbe 9254 39c0 4bd5 ccbf 2b99 5c3f
000000a0: b80d 77be e748 99bf 4469 fc3e 0cee dbbd
000000b0: f747 8ebe 681d 92bf 80b9 e73e d7a8 03bf
000000c0: e4c7 3f3f 7c48 f9bf 58b6 433f 7ded 01c0
000000d0: 1aab 193e 6114 f4bf eeb2 dbbf 2ecb 44ba
000000e0: b459 15c0 228a 653f 288a ffbf a3bc dfbf
000000f0: 52cb 6b3e 9168 11be e69a 793e 9b7f 5abf
00000100: fccb 09c0 410d 81bc 0703 b7bf e038 903e
00000110: 98e4 063e 3fdd 293e 9d22 0b3f 0ab6 173f
00000120: 190b 83be b2be 2c3f a609 d5be 1781 e7bf
00000130: 2ec7 4e3e 05b1 38c0 306e 5d3c 07fd d0bb
00000140: e6aa 40be ac09 a13e 9127 a5bf b0f3 0c3e
00000150: da42 efbd 3c19 38bf 1a8a 18bf 7185 953e
00000160: 5b73 28be 8673 813e b732 e3be fbe3 c4bf
00000170: dcc5 e3bd 99cc 87bd fc8a 1e3f e455 97bf
00000180: 1102 0fbe eda5 4fbf c571 2dbf 3a7e 733e
00000190: 69e7 acbe fa9c 303f ad49 273f a9f9 6cbf
000001a0: 1861 8b3d 024d b9bf 9fbc 3f3f c549 163f
000001b0: 1447 e0bd 9ca6 2dc0 0ddd f9bf 9ea0 7ebf
000001c0: d71a 273f 3fbb 48bd 7e6c 293e 1ab9 18c0
000001d0: 3846 fd3d e17a 0ac0 e434 e0bf c817 4bbd
000001e0: 302d 21c0 c552 493e 3871 623f d148 d43e
000001f0: d219 5bbe 5464 1fc0 2e81 e9bf e89a e7bf
00000200: e1f5 323f 4610 17c0 9c5d 5ebd bf15 4e3e
00000210: 0062 8c3a 14e8 bbbe 1d9b 99bf 2ca4 993e
00000220: 8bf0 9abf 18f3 00c0 1552 09bf c6cf 8b3f
00000230: aa02 4f3e f4b8 083f cd72 d8be c734 023f
00000240: 24d2 763f 1d66 033f 860f dcbf e65c b8bf
00000250: 9c44 99bd e844 bcbf 0f94 9bbf 02d8 a9bf
00000260: 29c1 fa3d 58a7 32bf bc39 1ac0 17e7 21be
00000270: d854 47bd e718 243f 340a 31be 9b4b 233f
00000280: 6552 9abf 40e4 91bd d3ac cc3e 9101 a03e
00000290: 5b17 b33e 1235 28c0 1b76 133f 872c 12c0
000002a0: eaf3 d7be aef5 f6be d6c8 34bf 9415 00c0
000002b0: 6595 a73e f1e9 803d 94ef 4c3f ab31 0f3f
000002c0: 5a35 14bf a453 f63e f039 05c0 3fef 323f
000002d0: b1bb 61be 5a37 b73e d47e 3dbf 4cda a8bf
000002e0: 044d 4ebf 9025 11be 2bc7 11be b642 a2be
000002f0: 3e77 1d3e 77be 99bf beb5 db3e df21 9d3e
00000300: 2da3 0ec0 5fe9 8f3e 88f2 d8be b9fc a73e
00000310: ea4b 9cbe 229f f9bd 52be 013f f679 0ec0
00000320: 06a3 03c0 079e ef3d 2fc0 88bb 535b 493f
00000330: b687 5f3e e788 3cbf 6081 75bf 3462 d2bd
00000340: c08f 463f da5f 07bf bc85 3b3e b79d 7ebf
00000350: 79b1 8ebe 9a84 303e b026 07c0 7840 e5bf
00000360: 6593 14c0 688d f8bf 0273 4c3f 37ed 683f
00000370: d4a3 3fbe 017b 6c3d 6a9c 3f3e 952a e2bf

l3.bias f4 [28]
-0.5063882 -0.10801972 -0.01052623 -0.5293984 -0.088721246 -0.12509343 0.1946253 0.23212902
0.05084605 -0.2962924 -0.0011541133 -0.15909155 -0.24179964 0.24298334 -0.015314321 0.07903834
0.15271737 0.31961617 0.22022384 0.035932153 -0.055462815 0.19157775 -0.031969566 0.06638256
-0.32451975 -0.2523347 0.3190291 0.26172283
00000000: a8a2 01bf 7139 ddbd 3576 2cbc a786 07bf
00000010: 7cb3 b5bd 7e18 00be db4b 473e 3bb3 6d3e
00000020: f343 503d a3b3 97be 9e45 97ba e5e8 22be
00000030: 539a 77be a0d0 783e ebe8 7abc dade a13d
00000040: f161 1c3e bba4 a33e 5c82 613e 982d 133d
00000050: fa2c 63bd f52c 443e 85f2 02bd 94f3 873d
00000060: 7427 a6be 0432 81be c857 a33e 8900 863e
